…
I0229 15:12:29.973657 28552 solver.cpp:91] Creating training net from net file: git/model/2d_train_test.prototxt
I0229 15:12:29.974081 28552 net.cpp:322] The NetState phase (0) differed from the phase (1) specified by a rule in layer 2d_data
I0229 15:12:29.974491 28552 net.cpp:49] Initializing net from parameters: 
name: "2d_train_test_net"
state {
  phase: TRAIN
}
layer {
  name: "2d_data"
  type: "HDF5Data"
  top: "data"
  top: "label"
  include {
    phase: TRAIN
  }
  hdf5_data_param {
    source: "git/data/train_datalist_new2d.txt"
    batch_size: 900
    shuffle: true
  }
}
layer {
  name: "conv1"
  type: "Convolution"
  bottom: "data"
  top: "conv1"
  param {
    lr_mult: 1
  }
  param {
    lr_mult: 2
  }
  convolution_param {
    num_output: 8
    pad: 2
    kernel_size: 5
    stride: 1
    weight_filler {
      type: "gaussian"
      std: 0.0001
    }
    bias_filler {
      type: "constant"
    }
  }
}
layer {
  name: "relu1"
  type: "ReLU"
  bottom: "conv1"
  top: "conv1"
}
layer {
  name: "conv2"
  type: "Convolution"
  bottom: "conv1"
  top: "conv2"
  param {
    lr_mult: 1
  }
  param {
    lr_mult: 2
  }
  convolution_param {
    num_output: 8
    pad: 2
    kernel_size: 5
    stride: 1
    weight_filler {
      type: "gaussian"
      std: 0.01
    }
    bias_filler {
      type: "constant"
    }
  }
}
layer {
  name: "relu2"
  type: "ReLU"
  bottom: "conv2"
  top: "conv2"
}
layer {
  name: "conv3"
  type: "Convolution"
  bottom: "conv2"
  top: "conv3"
  param {
    lr_mult: 1
  }
  param {
    lr_mult: 2
  }
  convolution_param {
    num_output: 8
    pad: 2
    kernel_size: 5
    stride: 1
    weight_filler {
      type: "gaussian"
      std: 0.01
    }
    bias_filler {
      type: "constant"
    }
  }
}
layer {
  name: "relu3"
  type: "ReLU"
  bottom: "conv3"
  top: "conv3"
}
layer {
  name: "ip1"
  type: "InnerProduct"
  bottom: "conv3"
  top: "ip1"
  inner_product_param {
    num_output: 8
    weight_filler {
      type: "xavier"
    }
  }
}
layer {
  name: "ip2"
  type: "InnerProduct"
  bottom: "ip1"
  top: "ip2"
  inner_product_param {
    num_output: 3
    weight_filler {
      type: "xavier"
    }
  }
}
layer {
  name: "accuracy"
  type: "Accuracy"
  bottom: "ip2"
  bottom: "label"
  top: "accuracy"
  accuracy_param {
    top_k: 1
  }
}
layer {
  name: "loss"
  type: "SoftmaxWithLoss"
  bottom: "ip2"
  bottom: "label"
  top: "loss"
}
I0229 15:12:29.975414 28552 layer_factory.hpp:77] Creating layer 2d_data
I0229 15:12:29.975582 28552 net.cpp:106] Creating Layer 2d_data
I0229 15:12:29.975674 28552 net.cpp:411] 2d_data -> data
I0229 15:12:29.975785 28552 net.cpp:411] 2d_data -> label
I0229 15:12:29.975911 28552 hdf5_data_layer.cpp:79] Loading list of HDF5 filenames from: git/data/train_datalist_new2d.txt
I0229 15:12:29.976019 28552 hdf5_data_layer.cpp:93] Number of HDF5 files: 9
I0229 15:12:29.977653 28552 hdf5.cpp:35] Datatype class: H5T_INTEGER
I0229 15:12:30.027801 28552 net.cpp:150] Setting up 2d_data
I0229 15:12:30.027904 28552 net.cpp:157] Top shape: 900 4 (3600)
I0229 15:12:30.027987 28552 net.cpp:157] Top shape: 900 1 (900)
I0229 15:12:30.028031 28552 net.cpp:165] Memory required for data: 18000
I0229 15:12:30.028076 28552 layer_factory.hpp:77] Creating layer label_2d_data_1_split
I0229 15:12:30.028126 28552 net.cpp:106] Creating Layer label_2d_data_1_split
I0229 15:12:30.028168 28552 net.cpp:454] label_2d_data_1_split <- label
I0229 15:12:30.028216 28552 net.cpp:411] label_2d_data_1_split -> label_2d_data_1_split_0
I0229 15:12:30.028264 28552 net.cpp:411] label_2d_data_1_split -> label_2d_data_1_split_1
I0229 15:12:30.028313 28552 net.cpp:150] Setting up label_2d_data_1_split
I0229 15:12:30.028360 28552 net.cpp:157] Top shape: 900 1 (900)
I0229 15:12:30.028466 28552 net.cpp:157] Top shape: 900 1 (900)
I0229 15:12:30.028506 28552 net.cpp:165] Memory required for data: 25200
I0229 15:12:30.028544 28552 layer_factory.hpp:77] Creating layer conv1
I0229 15:12:30.028596 28552 net.cpp:106] Creating Layer conv1
I0229 15:12:30.028637 28552 net.cpp:454] conv1 <- data
I0229 15:12:30.028681 28552 net.cpp:411] conv1 -> conv1
I0229 15:12:30.029182 28552 net.cpp:150] Setting up conv1
I0229 15:12:30.029238 28552 net.cpp:157] Top shape: 900 8 (7200)
I0229 15:12:30.029278 28552 net.cpp:165] Memory required for data: 54000
I0229 15:12:30.029328 28552 layer_factory.hpp:77] Creating layer relu1
I0229 15:12:30.029372 28552 net.cpp:106] Creating Layer relu1
I0229 15:12:30.029412 28552 net.cpp:454] relu1 <- conv1
I0229 15:12:30.029451 28552 net.cpp:397] relu1 -> conv1 (in-place)
I0229 15:12:30.029530 28552 net.cpp:150] Setting up relu1
I0229 15:12:30.029599 28552 net.cpp:157] Top shape: 900 8 (7200)
I0229 15:12:30.029656 28552 net.cpp:165] Memory required for data: 82800
I0229 15:12:30.029714 28552 layer_factory.hpp:77] Creating layer conv2
I0229 15:12:30.029798 28552 net.cpp:106] Creating Layer conv2
I0229 15:12:30.029863 28552 net.cpp:454] conv2 <- conv1
I0229 15:12:30.029935 28552 net.cpp:411] conv2 -> conv2
I0229 15:12:30.030031 28552 net.cpp:150] Setting up conv2
I0229 15:12:30.030092 28552 net.cpp:157] Top shape: 900 8 (7200)
I0229 15:12:30.030133 28552 net.cpp:165] Memory required for data: 111600
I0229 15:12:30.030184 28552 layer_factory.hpp:77] Creating layer relu2
I0229 15:12:30.030230 28552 net.cpp:106] Creating Layer relu2
I0229 15:12:30.030273 28552 net.cpp:454] relu2 <- conv2
I0229 15:12:30.030318 28552 net.cpp:397] relu2 -> conv2 (in-place)
I0229 15:12:30.030364 28552 net.cpp:150] Setting up relu2
I0229 15:12:30.030411 28552 net.cpp:157] Top shape: 900 8 (7200)
I0229 15:12:30.030454 28552 net.cpp:165] Memory required for data: 140400
I0229 15:12:30.030496 28552 layer_factory.hpp:77] Creating layer conv3
I0229 15:12:30.030544 28552 net.cpp:106] Creating Layer conv3
I0229 15:12:30.030586 28552 net.cpp:454] conv3 <- conv2
I0229 15:12:30.030629 28552 net.cpp:411] conv3 -> conv3
I0229 15:12:30.030689 28552 net.cpp:150] Setting up conv3
I0229 15:12:30.030735 28552 net.cpp:157] Top shape: 900 8 (7200)
I0229 15:12:30.030781 28552 net.cpp:165] Memory required for data: 169200
I0229 15:12:30.030823 28552 layer_factory.hpp:77] Creating layer relu3
I0229 15:12:30.030864 28552 net.cpp:106] Creating Layer relu3
I0229 15:12:30.030901 28552 net.cpp:454] relu3 <- conv3
I0229 15:12:30.030941 28552 net.cpp:397] relu3 -> conv3 (in-place)
I0229 15:12:30.030982 28552 net.cpp:150] Setting up relu3
I0229 15:12:30.031021 28552 net.cpp:157] Top shape: 900 8 (7200)
I0229 15:12:30.031059 28552 net.cpp:165] Memory required for data: 198000
I0229 15:12:30.031095 28552 layer_factory.hpp:77] Creating layer ip1
I0229 15:12:30.031141 28552 net.cpp:106] Creating Layer ip1
I0229 15:12:30.031182 28552 net.cpp:454] ip1 <- conv3
I0229 15:12:30.031221 28552 net.cpp:411] ip1 -> ip1
I0229 15:12:30.031283 28552 net.cpp:150] Setting up ip1
I0229 15:12:30.031327 28552 net.cpp:157] Top shape: 900 8 (7200)
I0229 15:12:30.031365 28552 net.cpp:165] Memory required for data: 226800
I0229 15:12:30.031397 28552 layer_factory.hpp:77] Creating layer ip2
I0229 15:12:30.031409 28552 net.cpp:106] Creating Layer ip2
I0229 15:12:30.031414 28552 net.cpp:454] ip2 <- ip1
I0229 15:12:30.031424 28552 net.cpp:411] ip2 -> ip2
I0229 15:12:30.031441 28552 net.cpp:150] Setting up ip2
I0229 15:12:30.031451 28552 net.cpp:157] Top shape: 900 3 (2700)
I0229 15:12:30.031457 28552 net.cpp:165] Memory required for data: 237600
I0229 15:12:30.031466 28552 layer_factory.hpp:77] Creating layer ip2_ip2_0_split
I0229 15:12:30.031474 28552 net.cpp:106] Creating Layer ip2_ip2_0_split
I0229 15:12:30.031481 28552 net.cpp:454] ip2_ip2_0_split <- ip2
I0229 15:12:30.031491 28552 net.cpp:411] ip2_ip2_0_split -> ip2_ip2_0_split_0
I0229 15:12:30.031498 28552 net.cpp:411] ip2_ip2_0_split -> ip2_ip2_0_split_1
I0229 15:12:30.031507 28552 net.cpp:150] Setting up ip2_ip2_0_split
I0229 15:12:30.031532 28552 net.cpp:157] Top shape: 900 3 (2700)
I0229 15:12:30.031538 28552 net.cpp:157] Top shape: 900 3 (2700)
I0229 15:12:30.031543 28552 net.cpp:165] Memory required for data: 259200
I0229 15:12:30.031550 28552 layer_factory.hpp:77] Creating layer accuracy
I0229 15:12:30.031561 28552 net.cpp:106] Creating Layer accuracy
I0229 15:12:30.031568 28552 net.cpp:454] accuracy <- ip2_ip2_0_split_0
I0229 15:12:30.031574 28552 net.cpp:454] accuracy <- label_2d_data_1_split_0
I0229 15:12:30.031581 28552 net.cpp:411] accuracy -> accuracy
…
