…
I0222 17:03:15.181752  4733 solver.cpp:91] Creating training net from net file: git/model/4d_train_test.prototxt
I0222 17:03:15.182040  4733 net.cpp:322] The NetState phase (0) differed from the phase (1) specified by a rule in layer 4d_data
I0222 17:03:15.182137  4733 net.cpp:49] Initializing net from parameters: 
name: "4d_train_test_net"
state {
  phase: TRAIN
}
layer {
  name: "4d_data"
  type: "HDF5Data"
  top: "data"
  top: "label"
  include {
    phase: TRAIN
  }
  hdf5_data_param {
    source: "git/data/train_datalist_new4d.txt"
    batch_size: 900
    shuffle: true
  }
}
layer {
  name: "conv1"
  type: "Convolution"
  bottom: "data"
  top: "conv1"
  param {
    lr_mult: 1
  }
  param {
    lr_mult: 2
  }
  convolution_param {
    num_output: 8
    pad: 2
    kernel_size: 5
    stride: 1
    weight_filler {
      type: "gaussian"
      std: 0.0001
    }
    bias_filler {
      type: "constant"
    }
  }
}
layer {
  name: "relu1"
  type: "ReLU"
  bottom: "conv1"
  top: "conv1"
}
layer {
  name: "conv2"
  type: "Convolution"
  bottom: "conv1"
  top: "conv2"
  param {
    lr_mult: 1
  }
  param {
    lr_mult: 2
  }
  convolution_param {
    num_output: 8
    pad: 2
    kernel_size: 5
    stride: 1
    weight_filler {
      type: "gaussian"
      std: 0.01
    }
    bias_filler {
      type: "constant"
    }
  }
}
layer {
  name: "relu2"
  type: "ReLU"
  bottom: "conv2"
  top: "conv2"
}
layer {
  name: "conv3"
  type: "Convolution"
  bottom: "conv2"
  top: "conv3"
  param {
    lr_mult: 1
  }
  param {
    lr_mult: 2
  }
  convolution_param {
    num_output: 8
    pad: 2
    kernel_size: 5
    stride: 1
    weight_filler {
      type: "gaussian"
      std: 0.01
    }
    bias_filler {
      type: "constant"
    }
  }
}
layer {
  name: "relu3"
  type: "ReLU"
  bottom: "conv3"
  top: "conv3"
}
layer {
  name: "ip1"
  type: "InnerProduct"
  bottom: "conv3"
  top: "ip1"
  param {
    lr_mult: 1
  }
  param {
    lr_mult: 2
  }
  inner_product_param {
    num_output: 8
    weight_filler {
      type: "gaussian"
      std: 0.1
    }
    bias_filler {
      type: "constant"
    }
  }
}
layer {
  name: "ip2"
  type: "InnerProduct"
  bottom: "ip1"
  top: "ip2"
  param {
    lr_mult: 1
  }
  param {
    lr_mult: 2
  }
  inner_product_param {
    num_output: 3
    weight_filler {
      type: "gaussian"
      std: 0.1
    }
    bias_filler {
      type: "constant"
    }
  }
}
layer {
  name: "accuracy"
  type: "Accuracy"
  bottom: "ip2"
  bottom: "label"
  top: "accuracy"
}
layer {
  name: "loss"
  type: "SoftmaxWithLoss"
  bottom: "ip2"
  bottom: "label"
  top: "loss"
}
I0222 17:03:15.182638  4733 layer_factory.hpp:77] Creating layer 4d_data
I0222 17:03:15.182665  4733 net.cpp:106] Creating Layer 4d_data
I0222 17:03:15.182677  4733 net.cpp:411] 4d_data -> data
I0222 17:03:15.182709  4733 net.cpp:411] 4d_data -> label
I0222 17:03:15.182729  4733 hdf5_data_layer.cpp:79] Loading list of HDF5 filenames from: git/data/train_datalist_new4d.txt
I0222 17:03:15.182760  4733 hdf5_data_layer.cpp:93] Number of HDF5 files: 9
I0222 17:03:15.183944  4733 hdf5.cpp:35] Datatype class: H5T_INTEGER
I0222 17:03:15.229873  4733 net.cpp:150] Setting up 4d_data
I0222 17:03:15.229918  4733 net.cpp:157] Top shape: 900 4 1 1 (3600)
I0222 17:03:15.229930  4733 net.cpp:157] Top shape: 900 1 (900)
I0222 17:03:15.229938  4733 net.cpp:165] Memory required for data: 18000
I0222 17:03:15.229948  4733 layer_factory.hpp:77] Creating layer label_4d_data_1_split
I0222 17:03:15.229965  4733 net.cpp:106] Creating Layer label_4d_data_1_split
I0222 17:03:15.229974  4733 net.cpp:454] label_4d_data_1_split <- label
I0222 17:03:15.229986  4733 net.cpp:411] label_4d_data_1_split -> label_4d_data_1_split_0
I0222 17:03:15.230027  4733 net.cpp:411] label_4d_data_1_split -> label_4d_data_1_split_1
I0222 17:03:15.230046  4733 net.cpp:150] Setting up label_4d_data_1_split
I0222 17:03:15.230058  4733 net.cpp:157] Top shape: 900 1 (900)
I0222 17:03:15.230065  4733 net.cpp:157] Top shape: 900 1 (900)
I0222 17:03:15.230070  4733 net.cpp:165] Memory required for data: 25200
I0222 17:03:15.230077  4733 layer_factory.hpp:77] Creating layer conv1
I0222 17:03:15.230098  4733 net.cpp:106] Creating Layer conv1
I0222 17:03:15.230109  4733 net.cpp:454] conv1 <- data
I0222 17:03:15.230118  4733 net.cpp:411] conv1 -> conv1
I0222 17:03:15.230605  4733 net.cpp:150] Setting up conv1
I0222 17:03:15.230622  4733 net.cpp:157] Top shape: 900 8 1 1 (7200)
I0222 17:03:15.230628  4733 net.cpp:165] Memory required for data: 54000
I0222 17:03:15.230644  4733 layer_factory.hpp:77] Creating layer relu1
I0222 17:03:15.230659  4733 net.cpp:106] Creating Layer relu1
I0222 17:03:15.230665  4733 net.cpp:454] relu1 <- conv1
I0222 17:03:15.230674  4733 net.cpp:397] relu1 -> conv1 (in-place)
I0222 17:03:15.230685  4733 net.cpp:150] Setting up relu1
I0222 17:03:15.230695  4733 net.cpp:157] Top shape: 900 8 1 1 (7200)
I0222 17:03:15.230701  4733 net.cpp:165] Memory required for data: 82800
I0222 17:03:15.230706  4733 layer_factory.hpp:77] Creating layer conv2
I0222 17:03:15.230718  4733 net.cpp:106] Creating Layer conv2
I0222 17:03:15.230728  4733 net.cpp:454] conv2 <- conv1
I0222 17:03:15.230736  4733 net.cpp:411] conv2 -> conv2
I0222 17:03:15.230808  4733 net.cpp:150] Setting up conv2
I0222 17:03:15.230819  4733 net.cpp:157] Top shape: 900 8 1 1 (7200)
I0222 17:03:15.230825  4733 net.cpp:165] Memory required for data: 111600
I0222 17:03:15.230835  4733 layer_factory.hpp:77] Creating layer relu2
I0222 17:03:15.230842  4733 net.cpp:106] Creating Layer relu2
I0222 17:03:15.230849  4733 net.cpp:454] relu2 <- conv2
I0222 17:03:15.230855  4733 net.cpp:397] relu2 -> conv2 (in-place)
I0222 17:03:15.230866  4733 net.cpp:150] Setting up relu2
I0222 17:03:15.230875  4733 net.cpp:157] Top shape: 900 8 1 1 (7200)
I0222 17:03:15.230880  4733 net.cpp:165] Memory required for data: 140400
I0222 17:03:15.230886  4733 layer_factory.hpp:77] Creating layer conv3
I0222 17:03:15.230896  4733 net.cpp:106] Creating Layer conv3
I0222 17:03:15.230906  4733 net.cpp:454] conv3 <- conv2
I0222 17:03:15.230916  4733 net.cpp:411] conv3 -> conv3
I0222 17:03:15.230989  4733 net.cpp:150] Setting up conv3
I0222 17:03:15.231001  4733 net.cpp:157] Top shape: 900 8 1 1 (7200)
I0222 17:03:15.231008  4733 net.cpp:165] Memory required for data: 169200
I0222 17:03:15.231016  4733 layer_factory.hpp:77] Creating layer relu3
I0222 17:03:15.231024  4733 net.cpp:106] Creating Layer relu3
I0222 17:03:15.231030  4733 net.cpp:454] relu3 <- conv3
I0222 17:03:15.231039  4733 net.cpp:397] relu3 -> conv3 (in-place)
I0222 17:03:15.231046  4733 net.cpp:150] Setting up relu3
I0222 17:03:15.231053  4733 net.cpp:157] Top shape: 900 8 1 1 (7200)
I0222 17:03:15.231060  4733 net.cpp:165] Memory required for data: 198000
I0222 17:03:15.231065  4733 layer_factory.hpp:77] Creating layer ip1
I0222 17:03:15.231076  4733 net.cpp:106] Creating Layer ip1
I0222 17:03:15.231086  4733 net.cpp:454] ip1 <- conv3
I0222 17:03:15.231094  4733 net.cpp:411] ip1 -> ip1
I0222 17:03:15.231118  4733 net.cpp:150] Setting up ip1
I0222 17:03:15.231130  4733 net.cpp:157] Top shape: 900 8 (7200)
I0222 17:03:15.231137  4733 net.cpp:165] Memory required for data: 226800
I0222 17:03:15.231143  4733 layer_factory.hpp:77] Creating layer ip2
I0222 17:03:15.231153  4733 net.cpp:106] Creating Layer ip2
I0222 17:03:15.231158  4733 net.cpp:454] ip2 <- ip1
I0222 17:03:15.231166  4733 net.cpp:411] ip2 -> ip2
I0222 17:03:15.231181  4733 net.cpp:150] Setting up ip2
I0222 17:03:15.231189  4733 net.cpp:157] Top shape: 900 3 (2700)
I0222 17:03:15.231195  4733 net.cpp:165] Memory required for data: 237600
I0222 17:03:15.231205  4733 layer_factory.hpp:77] Creating layer ip2_ip2_0_split
I0222 17:03:15.231212  4733 net.cpp:106] Creating Layer ip2_ip2_0_split
I0222 17:03:15.231219  4733 net.cpp:454] ip2_ip2_0_split <- ip2
I0222 17:03:15.231237  4733 net.cpp:411] ip2_ip2_0_split -> ip2_ip2_0_split_0
I0222 17:03:15.231247  4733 net.cpp:411] ip2_ip2_0_split -> ip2_ip2_0_split_1
I0222 17:03:15.231256  4733 net.cpp:150] Setting up ip2_ip2_0_split
I0222 17:03:15.231262  4733 net.cpp:157] Top shape: 900 3 (2700)
I0222 17:03:15.231268  4733 net.cpp:157] Top shape: 900 3 (2700)
I0222 17:03:15.231274  4733 net.cpp:165] Memory required for data: 259200
I0222 17:03:15.231279  4733 layer_factory.hpp:77] Creating layer accuracy
I0222 17:03:15.231288  4733 net.cpp:106] Creating Layer accuracy
I0222 17:03:15.231294  4733 net.cpp:454] accuracy <- ip2_ip2_0_split_0
I0222 17:03:15.231300  4733 net.cpp:454] accuracy <- label_4d_data_1_split_0
I0222 17:03:15.231308  4733 net.cpp:411] accuracy -> accuracy
…
