…
I0216 12:50:16.852041 14451 solver.cpp:91] Creating training net from net file: MnH/model/MnH_4d_train_test.prototxt
I0216 12:50:16.852375 14451 net.cpp:322] The NetState phase (0) differed from the phase (1) specified by a rule in layer cifar
I0216 12:50:16.852497 14451 net.cpp:49] Initializing net from parameters: 
name: "MnH_4d_train_test_net"
state {
  phase: TRAIN
}
layer {
  name: "cifar"
  type: "HDF5Data"
  top: "data"
  top: "label"
  include {
    phase: TRAIN
  }
  hdf5_data_param {
    source: "MnH/data/train_datalist_4d.txt"
    batch_size: 900
  }
}
layer {
  name: "conv1"
  type: "Convolution"
  bottom: "data"
  top: "conv1"
  param {
    lr_mult: 1
  }
  param {
    lr_mult: 2
  }
  convolution_param {
    num_output: 48
    pad: 2
    kernel_size: 3
    stride: 1
    weight_filler {
      type: "gaussian"
      std: 0.0001
    }
    bias_filler {
      type: "constant"
    }
  }
}
layer {
  name: "relu1"
  type: "ReLU"
  bottom: "conv1"
  top: "conv1"
}
layer {
  name: "conv2"
  type: "Convolution"
  bottom: "conv1"
  top: "conv2"
  param {
    lr_mult: 1
  }
  param {
    lr_mult: 2
  }
  convolution_param {
    num_output: 32
    pad: 2
    kernel_size: 5
    stride: 1
    weight_filler {
      type: "gaussian"
      std: 0.01
    }
    bias_filler {
      type: "constant"
    }
  }
}
layer {
  name: "relu2"
  type: "ReLU"
  bottom: "conv2"
  top: "conv2"
}
layer {
  name: "ip1"
  type: "InnerProduct"
  bottom: "conv2"
  top: "ip1"
  param {
    lr_mult: 1
  }
  param {
    lr_mult: 2
  }
  inner_product_param {
    num_output: 32
    weight_filler {
      type: "gaussian"
      std: 0.1
    }
    bias_filler {
      type: "constant"
    }
  }
}
layer {
  name: "drop1"
  type: "Dropout"
  bottom: "ip1"
  top: "ip1"
  dropout_param {
    dropout_ratio: 0.5
  }
}
layer {
  name: "ip2"
  type: "InnerProduct"
  bottom: "ip1"
  top: "ip2"
  param {
    lr_mult: 1
  }
  param {
    lr_mult: 2
  }
  inner_product_param {
    num_output: 3
    weight_filler {
      type: "gaussian"
      std: 0.1
    }
    bias_filler {
      type: "constant"
    }
  }
}
layer {
  name: "accuracy"
  type: "Accuracy"
  bottom: "ip2"
  bottom: "label"
  top: "accuracy"
}
layer {
  name: "loss"
  type: "SoftmaxWithLoss"
  bottom: "ip2"
  bottom: "label"
  top: "loss"
}
I0216 12:50:16.853178 14451 layer_factory.hpp:77] Creating layer cifar
I0216 12:50:16.853224 14451 net.cpp:106] Creating Layer cifar
I0216 12:50:16.853241 14451 net.cpp:411] cifar -> data
I0216 12:50:16.853277 14451 net.cpp:411] cifar -> label
I0216 12:50:16.853312 14451 hdf5_data_layer.cpp:79] Loading list of HDF5 filenames from: MnH/data/train_datalist_4d.txt
I0216 12:50:16.853356 14451 hdf5_data_layer.cpp:93] Number of HDF5 files: 9
I0216 12:50:16.854768 14451 hdf5.cpp:35] Datatype class: H5T_INTEGER
I0216 12:50:17.239750 14451 net.cpp:150] Setting up cifar
I0216 12:50:17.239811 14451 net.cpp:157] Top shape: 900 3 4 4 (43200)
I0216 12:50:17.239820 14451 net.cpp:157] Top shape: 900 1 (900)
I0216 12:50:17.239827 14451 net.cpp:165] Memory required for data: 176400
I0216 12:50:17.239837 14451 layer_factory.hpp:77] Creating layer label_cifar_1_split
I0216 12:50:17.239852 14451 net.cpp:106] Creating Layer label_cifar_1_split
I0216 12:50:17.239859 14451 net.cpp:454] label_cifar_1_split <- label
I0216 12:50:17.239873 14451 net.cpp:411] label_cifar_1_split -> label_cifar_1_split_0
I0216 12:50:17.239895 14451 net.cpp:411] label_cifar_1_split -> label_cifar_1_split_1
I0216 12:50:17.239910 14451 net.cpp:150] Setting up label_cifar_1_split
I0216 12:50:17.239925 14451 net.cpp:157] Top shape: 900 1 (900)
I0216 12:50:17.239933 14451 net.cpp:157] Top shape: 900 1 (900)
I0216 12:50:17.239938 14451 net.cpp:165] Memory required for data: 183600
I0216 12:50:17.239998 14451 layer_factory.hpp:77] Creating layer conv1
I0216 12:50:17.240034 14451 net.cpp:106] Creating Layer conv1
I0216 12:50:17.240041 14451 net.cpp:454] conv1 <- data
I0216 12:50:17.240051 14451 net.cpp:411] conv1 -> conv1
I0216 12:50:17.240540 14451 net.cpp:150] Setting up conv1
I0216 12:50:17.240571 14451 net.cpp:157] Top shape: 900 48 6 6 (1555200)
I0216 12:50:17.240577 14451 net.cpp:165] Memory required for data: 6404400
I0216 12:50:17.240594 14451 layer_factory.hpp:77] Creating layer relu1
I0216 12:50:17.240604 14451 net.cpp:106] Creating Layer relu1
I0216 12:50:17.240610 14451 net.cpp:454] relu1 <- conv1
I0216 12:50:17.240618 14451 net.cpp:397] relu1 -> conv1 (in-place)
I0216 12:50:17.240633 14451 net.cpp:150] Setting up relu1
I0216 12:50:17.240640 14451 net.cpp:157] Top shape: 900 48 6 6 (1555200)
I0216 12:50:17.240646 14451 net.cpp:165] Memory required for data: 12625200
I0216 12:50:17.240653 14451 layer_factory.hpp:77] Creating layer conv2
I0216 12:50:17.240664 14451 net.cpp:106] Creating Layer conv2
I0216 12:50:17.240677 14451 net.cpp:454] conv2 <- conv1
I0216 12:50:17.240685 14451 net.cpp:411] conv2 -> conv2
I0216 12:50:17.241925 14451 net.cpp:150] Setting up conv2
I0216 12:50:17.241953 14451 net.cpp:157] Top shape: 900 32 6 6 (1036800)
I0216 12:50:17.241960 14451 net.cpp:165] Memory required for data: 16772400
I0216 12:50:17.241968 14451 layer_factory.hpp:77] Creating layer relu2
I0216 12:50:17.241976 14451 net.cpp:106] Creating Layer relu2
I0216 12:50:17.241981 14451 net.cpp:454] relu2 <- conv2
I0216 12:50:17.241989 14451 net.cpp:397] relu2 -> conv2 (in-place)
I0216 12:50:17.241998 14451 net.cpp:150] Setting up relu2
I0216 12:50:17.242004 14451 net.cpp:157] Top shape: 900 32 6 6 (1036800)
I0216 12:50:17.242010 14451 net.cpp:165] Memory required for data: 20919600
I0216 12:50:17.242015 14451 layer_factory.hpp:77] Creating layer ip1
I0216 12:50:17.242027 14451 net.cpp:106] Creating Layer ip1
I0216 12:50:17.242034 14451 net.cpp:454] ip1 <- conv2
I0216 12:50:17.242044 14451 net.cpp:411] ip1 -> ip1
I0216 12:50:17.243268 14451 net.cpp:150] Setting up ip1
I0216 12:50:17.243297 14451 net.cpp:157] Top shape: 900 32 (28800)
I0216 12:50:17.243304 14451 net.cpp:165] Memory required for data: 21034800
I0216 12:50:17.243314 14451 layer_factory.hpp:77] Creating layer drop1
I0216 12:50:17.243325 14451 net.cpp:106] Creating Layer drop1
I0216 12:50:17.243331 14451 net.cpp:454] drop1 <- ip1
I0216 12:50:17.243338 14451 net.cpp:397] drop1 -> ip1 (in-place)
I0216 12:50:17.243353 14451 net.cpp:150] Setting up drop1
I0216 12:50:17.243368 14451 net.cpp:157] Top shape: 900 32 (28800)
I0216 12:50:17.243374 14451 net.cpp:165] Memory required for data: 21150000
I0216 12:50:17.243379 14451 layer_factory.hpp:77] Creating layer ip2
I0216 12:50:17.243391 14451 net.cpp:106] Creating Layer ip2
I0216 12:50:17.243398 14451 net.cpp:454] ip2 <- ip1
I0216 12:50:17.243407 14451 net.cpp:411] ip2 -> ip2
I0216 12:50:17.243425 14451 net.cpp:150] Setting up ip2
I0216 12:50:17.243448 14451 net.cpp:157] Top shape: 900 3 (2700)
I0216 12:50:17.243465 14451 net.cpp:165] Memory required for data: 21160800
I0216 12:50:17.243473 14451 layer_factory.hpp:77] Creating layer ip2_ip2_0_split
I0216 12:50:17.243480 14451 net.cpp:106] Creating Layer ip2_ip2_0_split
I0216 12:50:17.243486 14451 net.cpp:454] ip2_ip2_0_split <- ip2
I0216 12:50:17.243492 14451 net.cpp:411] ip2_ip2_0_split -> ip2_ip2_0_split_0
I0216 12:50:17.243501 14451 net.cpp:411] ip2_ip2_0_split -> ip2_ip2_0_split_1
I0216 12:50:17.243510 14451 net.cpp:150] Setting up ip2_ip2_0_split
I0216 12:50:17.243516 14451 net.cpp:157] Top shape: 900 3 (2700)
I0216 12:50:17.243522 14451 net.cpp:157] Top shape: 900 3 (2700)
I0216 12:50:17.243536 14451 net.cpp:165] Memory required for data: 21182400
I0216 12:50:17.243542 14451 layer_factory.hpp:77] Creating layer accuracy
I0216 12:50:17.243552 14451 net.cpp:106] Creating Layer accuracy
I0216 12:50:17.243557 14451 net.cpp:454] accuracy <- ip2_ip2_0_split_0
I0216 12:50:17.243563 14451 net.cpp:454] accuracy <- label_cifar_1_split_0
I0216 12:50:17.243582 14451 net.cpp:411] accuracy -> accuracy
…
