…
I0217 15:32:29.461782 15956 solver.cpp:91] Creating training net from net file: MnH/model/MnH_4d_train_test.prototxt
I0217 15:32:29.462024 15956 net.cpp:322] The NetState phase (0) differed from the phase (1) specified by a rule in layer 4d_data
I0217 15:32:29.462108 15956 net.cpp:49] Initializing net from parameters: 
name: "MnH_4d_train_test_net"
state {
  phase: TRAIN
}
layer {
  name: "4d_data"
  type: "HDF5Data"
  top: "data"
  top: "label"
  include {
    phase: TRAIN
  }
  hdf5_data_param {
    source: "MnH/data/train_datalist_4d.txt"
    batch_size: 900
  }
}
layer {
  name: "conv1"
  type: "Convolution"
  bottom: "data"
  top: "conv1"
  param {
    lr_mult: 1
  }
  param {
    lr_mult: 2
  }
  convolution_param {
    num_output: 16
    pad: 2
    kernel_size: 3
    stride: 1
    weight_filler {
      type: "gaussian"
      std: 0.0001
    }
    bias_filler {
      type: "constant"
    }
  }
}
layer {
  name: "relu1"
  type: "ReLU"
  bottom: "conv1"
  top: "conv1"
}
layer {
  name: "conv2"
  type: "Convolution"
  bottom: "conv1"
  top: "conv2"
  param {
    lr_mult: 1
  }
  param {
    lr_mult: 2
  }
  convolution_param {
    num_output: 16
    pad: 2
    kernel_size: 3
    stride: 1
    weight_filler {
      type: "gaussian"
      std: 0.01
    }
    bias_filler {
      type: "constant"
    }
  }
}
layer {
  name: "relu2"
  type: "ReLU"
  bottom: "conv2"
  top: "conv2"
}
layer {
  name: "ip1"
  type: "InnerProduct"
  bottom: "conv2"
  top: "ip1"
  param {
    lr_mult: 1
  }
  param {
    lr_mult: 2
  }
  inner_product_param {
    num_output: 16
    weight_filler {
      type: "gaussian"
      std: 0.1
    }
    bias_filler {
      type: "constant"
    }
  }
}
layer {
  name: "drop1"
  type: "Dropout"
  bottom: "ip1"
  top: "ip1"
  dropout_param {
    dropout_ratio: 0.5
  }
}
layer {
  name: "ip2"
  type: "InnerProduct"
  bottom: "ip1"
  top: "ip2"
  param {
    lr_mult: 1
  }
  param {
    lr_mult: 2
  }
  inner_product_param {
    num_output: 3
    weight_filler {
      type: "gaussian"
      std: 0.1
    }
    bias_filler {
      type: "constant"
    }
  }
}
layer {
  name: "accuracy"
  type: "Accuracy"
  bottom: "ip2"
  bottom: "label"
  top: "accuracy"
}
layer {
  name: "loss"
  type: "SoftmaxWithLoss"
  bottom: "ip2"
  bottom: "label"
  top: "loss"
}
I0217 15:32:29.462535 15956 layer_factory.hpp:77] Creating layer 4d_data
I0217 15:32:29.462558 15956 net.cpp:106] Creating Layer 4d_data
I0217 15:32:29.462571 15956 net.cpp:411] 4d_data -> data
I0217 15:32:29.462597 15956 net.cpp:411] 4d_data -> label
I0217 15:32:29.462615 15956 hdf5_data_layer.cpp:79] Loading list of HDF5 filenames from: MnH/data/train_datalist_4d.txt
I0217 15:32:29.462651 15956 hdf5_data_layer.cpp:93] Number of HDF5 files: 9
I0217 15:32:29.466817 15956 hdf5.cpp:35] Datatype class: H5T_INTEGER
I0217 15:32:29.860579 15956 net.cpp:150] Setting up 4d_data
I0217 15:32:29.860642 15956 net.cpp:157] Top shape: 900 3 4 4 (43200)
I0217 15:32:29.860652 15956 net.cpp:157] Top shape: 900 1 (900)
I0217 15:32:29.860658 15956 net.cpp:165] Memory required for data: 176400
I0217 15:32:29.860669 15956 layer_factory.hpp:77] Creating layer label_4d_data_1_split
I0217 15:32:29.860685 15956 net.cpp:106] Creating Layer label_4d_data_1_split
I0217 15:32:29.860693 15956 net.cpp:454] label_4d_data_1_split <- label
I0217 15:32:29.860708 15956 net.cpp:411] label_4d_data_1_split -> label_4d_data_1_split_0
I0217 15:32:29.860728 15956 net.cpp:411] label_4d_data_1_split -> label_4d_data_1_split_1
I0217 15:32:29.860743 15956 net.cpp:150] Setting up label_4d_data_1_split
I0217 15:32:29.860759 15956 net.cpp:157] Top shape: 900 1 (900)
I0217 15:32:29.860771 15956 net.cpp:157] Top shape: 900 1 (900)
I0217 15:32:29.860777 15956 net.cpp:165] Memory required for data: 183600
I0217 15:32:29.860868 15956 layer_factory.hpp:77] Creating layer conv1
I0217 15:32:29.860895 15956 net.cpp:106] Creating Layer conv1
I0217 15:32:29.860903 15956 net.cpp:454] conv1 <- data
I0217 15:32:29.860913 15956 net.cpp:411] conv1 -> conv1
I0217 15:32:29.861428 15956 net.cpp:150] Setting up conv1
I0217 15:32:29.861457 15956 net.cpp:157] Top shape: 900 16 6 6 (518400)
I0217 15:32:29.861464 15956 net.cpp:165] Memory required for data: 2257200
I0217 15:32:29.861480 15956 layer_factory.hpp:77] Creating layer relu1
I0217 15:32:29.861492 15956 net.cpp:106] Creating Layer relu1
I0217 15:32:29.861500 15956 net.cpp:454] relu1 <- conv1
I0217 15:32:29.861506 15956 net.cpp:397] relu1 -> conv1 (in-place)
I0217 15:32:29.861523 15956 net.cpp:150] Setting up relu1
I0217 15:32:29.861531 15956 net.cpp:157] Top shape: 900 16 6 6 (518400)
I0217 15:32:29.861536 15956 net.cpp:165] Memory required for data: 4330800
I0217 15:32:29.861541 15956 layer_factory.hpp:77] Creating layer conv2
I0217 15:32:29.861553 15956 net.cpp:106] Creating Layer conv2
I0217 15:32:29.861559 15956 net.cpp:454] conv2 <- conv1
I0217 15:32:29.861568 15956 net.cpp:411] conv2 -> conv2
I0217 15:32:29.861670 15956 net.cpp:150] Setting up conv2
I0217 15:32:29.861696 15956 net.cpp:157] Top shape: 900 16 8 8 (921600)
I0217 15:32:29.861702 15956 net.cpp:165] Memory required for data: 8017200
I0217 15:32:29.861712 15956 layer_factory.hpp:77] Creating layer relu2
I0217 15:32:29.861719 15956 net.cpp:106] Creating Layer relu2
I0217 15:32:29.861726 15956 net.cpp:454] relu2 <- conv2
I0217 15:32:29.861732 15956 net.cpp:397] relu2 -> conv2 (in-place)
I0217 15:32:29.861740 15956 net.cpp:150] Setting up relu2
I0217 15:32:29.861748 15956 net.cpp:157] Top shape: 900 16 8 8 (921600)
I0217 15:32:29.861753 15956 net.cpp:165] Memory required for data: 11703600
I0217 15:32:29.861759 15956 layer_factory.hpp:77] Creating layer ip1
I0217 15:32:29.861773 15956 net.cpp:106] Creating Layer ip1
I0217 15:32:29.861785 15956 net.cpp:454] ip1 <- conv2
I0217 15:32:29.861795 15956 net.cpp:411] ip1 -> ip1
I0217 15:32:29.862336 15956 net.cpp:150] Setting up ip1
I0217 15:32:29.862365 15956 net.cpp:157] Top shape: 900 16 (14400)
I0217 15:32:29.862370 15956 net.cpp:165] Memory required for data: 11761200
I0217 15:32:29.862380 15956 layer_factory.hpp:77] Creating layer drop1
I0217 15:32:29.862390 15956 net.cpp:106] Creating Layer drop1
I0217 15:32:29.862397 15956 net.cpp:454] drop1 <- ip1
I0217 15:32:29.862404 15956 net.cpp:397] drop1 -> ip1 (in-place)
I0217 15:32:29.862417 15956 net.cpp:150] Setting up drop1
I0217 15:32:29.862432 15956 net.cpp:157] Top shape: 900 16 (14400)
I0217 15:32:29.862438 15956 net.cpp:165] Memory required for data: 11818800
I0217 15:32:29.862443 15956 layer_factory.hpp:77] Creating layer ip2
I0217 15:32:29.862454 15956 net.cpp:106] Creating Layer ip2
I0217 15:32:29.862460 15956 net.cpp:454] ip2 <- ip1
I0217 15:32:29.862468 15956 net.cpp:411] ip2 -> ip2
I0217 15:32:29.862485 15956 net.cpp:150] Setting up ip2
I0217 15:32:29.862510 15956 net.cpp:157] Top shape: 900 3 (2700)
I0217 15:32:29.862526 15956 net.cpp:165] Memory required for data: 11829600
I0217 15:32:29.862534 15956 layer_factory.hpp:77] Creating layer ip2_ip2_0_split
I0217 15:32:29.862542 15956 net.cpp:106] Creating Layer ip2_ip2_0_split
I0217 15:32:29.862547 15956 net.cpp:454] ip2_ip2_0_split <- ip2
I0217 15:32:29.862556 15956 net.cpp:411] ip2_ip2_0_split -> ip2_ip2_0_split_0
I0217 15:32:29.862565 15956 net.cpp:411] ip2_ip2_0_split -> ip2_ip2_0_split_1
I0217 15:32:29.862574 15956 net.cpp:150] Setting up ip2_ip2_0_split
I0217 15:32:29.862581 15956 net.cpp:157] Top shape: 900 3 (2700)
I0217 15:32:29.862587 15956 net.cpp:157] Top shape: 900 3 (2700)
I0217 15:32:29.862602 15956 net.cpp:165] Memory required for data: 11851200
I0217 15:32:29.862607 15956 layer_factory.hpp:77] Creating layer accuracy
I0217 15:32:29.862615 15956 net.cpp:106] Creating Layer accuracy
I0217 15:32:29.862622 15956 net.cpp:454] accuracy <- ip2_ip2_0_split_0
I0217 15:32:29.862627 15956 net.cpp:454] accuracy <- label_4d_data_1_split_0
I0217 15:32:29.862648 15956 net.cpp:411] accuracy -> accuracy
…
