…
I0215 15:12:00.875301   620 solver.cpp:91] Creating training net from net file: MnH/model/MnH_4d_train_test.prototxt
I0215 15:12:00.875605   620 net.cpp:322] The NetState phase (0) differed from the phase (1) specified by a rule in layer cifar
I0215 15:12:00.875700   620 net.cpp:49] Initializing net from parameters: 
name: "MnH_4d_train_test_net"
state {
  phase: TRAIN
}
layer {
  name: "cifar"
  type: "HDF5Data"
  top: "data"
  top: "label"
  include {
    phase: TRAIN
  }
  hdf5_data_param {
    source: "MnH/data/train_datalist_4d.txt"
    batch_size: 900
  }
}
layer {
  name: "conv1"
  type: "Convolution"
  bottom: "data"
  top: "conv1"
  param {
    lr_mult: 1
  }
  param {
    lr_mult: 2
  }
  convolution_param {
    num_output: 32
    pad: 2
    kernel_size: 3
    stride: 1
    weight_filler {
      type: "gaussian"
      std: 0.0001
    }
    bias_filler {
      type: "constant"
    }
  }
}
layer {
  name: "relu1"
  type: "ReLU"
  bottom: "conv1"
  top: "conv1"
}
layer {
  name: "conv2"
  type: "Convolution"
  bottom: "conv1"
  top: "conv2"
  param {
    lr_mult: 1
  }
  param {
    lr_mult: 2
  }
  convolution_param {
    num_output: 32
    pad: 2
    kernel_size: 3
    stride: 1
    weight_filler {
      type: "gaussian"
      std: 0.01
    }
    bias_filler {
      type: "constant"
    }
  }
}
layer {
  name: "relu2"
  type: "ReLU"
  bottom: "conv2"
  top: "conv2"
}
layer {
  name: "conv3"
  type: "Convolution"
  bottom: "conv2"
  top: "conv3"
  param {
    lr_mult: 1
  }
  param {
    lr_mult: 2
  }
  convolution_param {
    num_output: 64
    pad: 2
    kernel_size: 3
    stride: 1
    weight_filler {
      type: "gaussian"
      std: 0.01
    }
    bias_filler {
      type: "constant"
    }
  }
}
layer {
  name: "relu3"
  type: "ReLU"
  bottom: "conv3"
  top: "conv3"
}
layer {
  name: "ip1"
  type: "InnerProduct"
  bottom: "conv3"
  top: "ip1"
  param {
    lr_mult: 1
  }
  param {
    lr_mult: 2
  }
  inner_product_param {
    num_output: 32
    weight_filler {
      type: "gaussian"
      std: 0.1
    }
    bias_filler {
      type: "constant"
    }
  }
}
layer {
  name: "drop1"
  type: "Dropout"
  bottom: "ip1"
  top: "ip1"
  dropout_param {
    dropout_ratio: 0.5
  }
}
layer {
  name: "ip2"
  type: "InnerProduct"
  bottom: "ip1"
  top: "ip2"
  param {
    lr_mult: 1
  }
  param {
    lr_mult: 2
  }
  inner_product_param {
    num_output: 3
    weight_filler {
      type: "gaussian"
      std: 0.1
    }
    bias_filler {
      type: "constant"
    }
  }
}
layer {
  name: "accuracy"
  type: "Accuracy"
  bottom: "ip2"
  bottom: "label"
  top: "accuracy"
}
layer {
  name: "loss"
  type: "SoftmaxWithLoss"
  bottom: "ip2"
  bottom: "label"
  top: "loss"
}
I0215 15:12:00.876256   620 layer_factory.hpp:77] Creating layer cifar
I0215 15:12:00.876281   620 net.cpp:106] Creating Layer cifar
I0215 15:12:00.876293   620 net.cpp:411] cifar -> data
I0215 15:12:00.876319   620 net.cpp:411] cifar -> label
I0215 15:12:00.876337   620 hdf5_data_layer.cpp:79] Loading list of HDF5 filenames from: MnH/data/train_datalist_4d.txt
I0215 15:12:00.876369   620 hdf5_data_layer.cpp:93] Number of HDF5 files: 9
I0215 15:12:00.877485   620 hdf5.cpp:35] Datatype class: H5T_INTEGER
I0215 15:12:01.258280   620 net.cpp:150] Setting up cifar
I0215 15:12:01.258376   620 net.cpp:157] Top shape: 900 3 4 4 (43200)
I0215 15:12:01.258386   620 net.cpp:157] Top shape: 900 1 (900)
I0215 15:12:01.258394   620 net.cpp:165] Memory required for data: 176400
I0215 15:12:01.258404   620 layer_factory.hpp:77] Creating layer label_cifar_1_split
I0215 15:12:01.258419   620 net.cpp:106] Creating Layer label_cifar_1_split
I0215 15:12:01.258435   620 net.cpp:454] label_cifar_1_split <- label
I0215 15:12:01.258476   620 net.cpp:411] label_cifar_1_split -> label_cifar_1_split_0
I0215 15:12:01.258491   620 net.cpp:411] label_cifar_1_split -> label_cifar_1_split_1
I0215 15:12:01.258512   620 net.cpp:150] Setting up label_cifar_1_split
I0215 15:12:01.258522   620 net.cpp:157] Top shape: 900 1 (900)
I0215 15:12:01.258528   620 net.cpp:157] Top shape: 900 1 (900)
I0215 15:12:01.258533   620 net.cpp:165] Memory required for data: 183600
I0215 15:12:01.258539   620 layer_factory.hpp:77] Creating layer conv1
I0215 15:12:01.258561   620 net.cpp:106] Creating Layer conv1
I0215 15:12:01.258584   620 net.cpp:454] conv1 <- data
I0215 15:12:01.258604   620 net.cpp:411] conv1 -> conv1
I0215 15:12:01.259104   620 net.cpp:150] Setting up conv1
I0215 15:12:01.259135   620 net.cpp:157] Top shape: 900 32 6 6 (1036800)
I0215 15:12:01.259141   620 net.cpp:165] Memory required for data: 4330800
I0215 15:12:01.259158   620 layer_factory.hpp:77] Creating layer relu1
I0215 15:12:01.259171   620 net.cpp:106] Creating Layer relu1
I0215 15:12:01.259181   620 net.cpp:454] relu1 <- conv1
I0215 15:12:01.259189   620 net.cpp:397] relu1 -> conv1 (in-place)
I0215 15:12:01.259199   620 net.cpp:150] Setting up relu1
I0215 15:12:01.259207   620 net.cpp:157] Top shape: 900 32 6 6 (1036800)
I0215 15:12:01.259212   620 net.cpp:165] Memory required for data: 8478000
I0215 15:12:01.259217   620 layer_factory.hpp:77] Creating layer conv2
I0215 15:12:01.259228   620 net.cpp:106] Creating Layer conv2
I0215 15:12:01.259241   620 net.cpp:454] conv2 <- conv1
I0215 15:12:01.259251   620 net.cpp:411] conv2 -> conv2
I0215 15:12:01.259562   620 net.cpp:150] Setting up conv2
I0215 15:12:01.259588   620 net.cpp:157] Top shape: 900 32 8 8 (1843200)
I0215 15:12:01.259594   620 net.cpp:165] Memory required for data: 15850800
I0215 15:12:01.259603   620 layer_factory.hpp:77] Creating layer relu2
I0215 15:12:01.259613   620 net.cpp:106] Creating Layer relu2
I0215 15:12:01.259618   620 net.cpp:454] relu2 <- conv2
I0215 15:12:01.259625   620 net.cpp:397] relu2 -> conv2 (in-place)
I0215 15:12:01.259634   620 net.cpp:150] Setting up relu2
I0215 15:12:01.259640   620 net.cpp:157] Top shape: 900 32 8 8 (1843200)
I0215 15:12:01.259645   620 net.cpp:165] Memory required for data: 23223600
I0215 15:12:01.259651   620 layer_factory.hpp:77] Creating layer conv3
I0215 15:12:01.259661   620 net.cpp:106] Creating Layer conv3
I0215 15:12:01.259667   620 net.cpp:454] conv3 <- conv2
I0215 15:12:01.259676   620 net.cpp:411] conv3 -> conv3
I0215 15:12:01.260280   620 net.cpp:150] Setting up conv3
I0215 15:12:01.260308   620 net.cpp:157] Top shape: 900 64 10 10 (5760000)
I0215 15:12:01.260314   620 net.cpp:165] Memory required for data: 46263600
I0215 15:12:01.260324   620 layer_factory.hpp:77] Creating layer relu3
I0215 15:12:01.260330   620 net.cpp:106] Creating Layer relu3
I0215 15:12:01.260335   620 net.cpp:454] relu3 <- conv3
I0215 15:12:01.260344   620 net.cpp:397] relu3 -> conv3 (in-place)
I0215 15:12:01.260352   620 net.cpp:150] Setting up relu3
I0215 15:12:01.260359   620 net.cpp:157] Top shape: 900 64 10 10 (5760000)
I0215 15:12:01.260365   620 net.cpp:165] Memory required for data: 69303600
I0215 15:12:01.260370   620 layer_factory.hpp:77] Creating layer ip1
I0215 15:12:01.260382   620 net.cpp:106] Creating Layer ip1
I0215 15:12:01.260390   620 net.cpp:454] ip1 <- conv3
I0215 15:12:01.260401   620 net.cpp:411] ip1 -> ip1
I0215 15:12:01.266942   620 net.cpp:150] Setting up ip1
I0215 15:12:01.266971   620 net.cpp:157] Top shape: 900 32 (28800)
I0215 15:12:01.266978   620 net.cpp:165] Memory required for data: 69418800
I0215 15:12:01.266985   620 layer_factory.hpp:77] Creating layer drop1
I0215 15:12:01.266999   620 net.cpp:106] Creating Layer drop1
I0215 15:12:01.267004   620 net.cpp:454] drop1 <- ip1
I0215 15:12:01.267011   620 net.cpp:397] drop1 -> ip1 (in-place)
I0215 15:12:01.267025   620 net.cpp:150] Setting up drop1
I0215 15:12:01.267032   620 net.cpp:157] Top shape: 900 32 (28800)
I0215 15:12:01.267046   620 net.cpp:165] Memory required for data: 69534000
I0215 15:12:01.267051   620 layer_factory.hpp:77] Creating layer ip2
I0215 15:12:01.267071   620 net.cpp:106] Creating Layer ip2
I0215 15:12:01.267076   620 net.cpp:454] ip2 <- ip1
I0215 15:12:01.267086   620 net.cpp:411] ip2 -> ip2
I0215 15:12:01.267107   620 net.cpp:150] Setting up ip2
I0215 15:12:01.267114   620 net.cpp:157] Top shape: 900 3 (2700)
I0215 15:12:01.267119   620 net.cpp:165] Memory required for data: 69544800
I0215 15:12:01.267128   620 layer_factory.hpp:77] Creating layer ip2_ip2_0_split
I0215 15:12:01.267135   620 net.cpp:106] Creating Layer ip2_ip2_0_split
I0215 15:12:01.267140   620 net.cpp:454] ip2_ip2_0_split <- ip2
I0215 15:12:01.267148   620 net.cpp:411] ip2_ip2_0_split -> ip2_ip2_0_split_0
I0215 15:12:01.267155   620 net.cpp:411] ip2_ip2_0_split -> ip2_ip2_0_split_1
I0215 15:12:01.267163   620 net.cpp:150] Setting up ip2_ip2_0_split
I0215 15:12:01.267170   620 net.cpp:157] Top shape: 900 3 (2700)
I0215 15:12:01.267176   620 net.cpp:157] Top shape: 900 3 (2700)
I0215 15:12:01.267180   620 net.cpp:165] Memory required for data: 69566400
I0215 15:12:01.267185   620 layer_factory.hpp:77] Creating layer accuracy
I0215 15:12:01.267195   620 net.cpp:106] Creating Layer accuracy
I0215 15:12:01.267201   620 net.cpp:454] accuracy <- ip2_ip2_0_split_0
I0215 15:12:01.267207   620 net.cpp:454] accuracy <- label_cifar_1_split_0
I0215 15:12:01.267213   620 net.cpp:411] accuracy -> accuracy
…
